…
2:18:39,622: INFO: 02_transfer_learning_even_odd]: 
********************
[2023-04-24 12:18:39,622: INFO: 02_transfer_learning_even_odd]: >>>>> stage TRANSFER LEARNING started <<<<<
[2023-04-24 12:18:39,623: INFO: common]: yaml file: configs/config.yaml loaded successfully
[2023-04-24 12:18:40,247: INFO: 02_transfer_learning_even_odd]: Model summary: 
Model: "sequential"
_________________________________________________________________
 Layer (type)                Output Shape              Param #   
=================================================================
 flatten (Flatten)           (None, 784)               0         
                                                                 
 hiddenlayer1 (Dense)        (None, 300)               235500    
                                                                 
 leaky_re_lu (LeakyReLU)     (None, 300)               0         
                                                                 
 hiddenlayer2 (Dense)        (None, 100)               30100     
                                                                 
 leaky_re_lu_1 (LeakyReLU)   (None, 100)               0         
                                                                 
 outputlayer (Dense)         (None, 10)                1010      
                                                                 
=================================================================
Total params: 266,610
Trainable params: 266,610
Non-trainable params: 0
_________________________________________________________________

[2023-04-24 12:18:40,311: INFO: 02_transfer_learning_even_odd]: TRANSFER LEARNING model summary: 
Model: "sequential"
_________________________________________________________________
 Layer (type)                Output Shape              Param #   
=================================================================
 flatten (Flatten)           (None, 784)               0         
                                                                 
 hiddenlayer1 (Dense)        (None, 300)               235500    
                                                                 
 leaky_re_lu (LeakyReLU)     (None, 300)               0         
                                                                 
 hiddenlayer2 (Dense)        (None, 100)               30100     
                                                                 
 leaky_re_lu_1 (LeakyReLU)   (None, 100)               0         
                                                                 
 outputlayer (Dense)         (None, 2)                 202       
                                                                 
=================================================================
Total params: 265,802
Trainable params: 202
Non-trainable params: 265,600
_________________________________________________________________

[2023-04-24 12:19:36,700: INFO: 02_transfer_learning_even_odd]: base model saved at artifacts\models\even_odd_model.h5
[2023-04-24 12:19:38,405: INFO: 02_transfer_learning_even_odd]: evaluation metrics [0.29862457513809204, 0.8726999759674072]
…
